…
2024-02-03 15:05:55.711073: W tensorflow/stream_executor/gpu/asm_compiler.cc:81] Running ptxas --version returned 256
2024-02-03 15:05:55.767061: W tensorflow/stream_executor/gpu/redzone_allocator.cc:314] Internal: ptxas exited with non-zero error code 256, output: 
Relying on driver to perform ptx compilation. 
Modify $PATH to customize ptxas location.
This message will be only logged once.
Model: "sequential"
_________________________________________________________________
Layer (type)                 Output Shape              Param #   
=================================================================
conv2d (Conv2D)              (None, 222, 222, 64)      1792      
_________________________________________________________________
max_pooling2d (MaxPooling2D) (None, 111, 111, 64)      0         
_________________________________________________________________
conv2d_1 (Conv2D)            (None, 109, 109, 128)     73856     
_________________________________________________________________
max_pooling2d_1 (MaxPooling2 (None, 54, 54, 128)       0         
_________________________________________________________________
conv2d_2 (Conv2D)            (None, 52, 52, 256)       295168    
_________________________________________________________________
flatten (Flatten)            (None, 692224)            0         
_________________________________________________________________
dense (Dense)                (None, 256)               177209600 
_________________________________________________________________
dense_1 (Dense)              (None, 1)                 257       
=================================================================
Total params: 177,580,673
Trainable params: 177,580,673
Non-trainable params: 0
_________________________________________________________________
Epoch 1/50
  1/188 [..............................] - ETA: 0s - loss: 0.6947 - accuracy: 0.5000
…
